{"modelTopology": null, "weightsManifest": [{"paths": ["group1-shard1of10", "group1-shard2of10", "group1-shard3of10", "group1-shard4of10", "group1-shard5of10", "group1-shard6of10", "group1-shard7of10", "group1-shard8of10", "group1-shard9of10", "group1-shard10of10"], "weights": [{"name": "conv2d_1/kernel", "shape": [2, 2, 4, 64], "dtype": "float32"}, {"name": "conv2d_1/bias", "shape": [64], "dtype": "float32"}, {"name": "batch_normalization_1/gamma", "shape": [64], "dtype": "float32"}, {"name": "batch_normalization_1/beta", "shape": [64], "dtype": "float32"}, {"name": "batch_normalization_1/moving_mean", "shape": [64], "dtype": "float32"}, {"name": "batch_normalization_1/moving_variance", "shape": [64], "dtype": "float32"}, {"name": "p_re_lu_1/alpha", "shape": [1, 1, 64], "dtype": "float32"}, {"name": "conv2d_2/kernel", "shape": [3, 3, 64, 64], "dtype": "float32"}, {"name": "conv2d_2/bias", "shape": [64], "dtype": "float32"}, {"name": "batch_normalization_2/gamma", "shape": [64], "dtype": "float32"}, {"name": "batch_normalization_2/beta", "shape": [64], "dtype": "float32"}, {"name": "batch_normalization_2/moving_mean", "shape": [64], "dtype": "float32"}, {"name": "batch_normalization_2/moving_variance", "shape": [64], "dtype": "float32"}, {"name": "p_re_lu_2/alpha", "shape": [1, 1, 64], "dtype": "float32"}, {"name": "conv2d_3/kernel", "shape": [3, 3, 64, 64], "dtype": "float32"}, {"name": "conv2d_3/bias", "shape": [64], "dtype": "float32"}, {"name": "conv2d_4/kernel", "shape": [2, 2, 64, 128], "dtype": "float32"}, {"name": "conv2d_4/bias", "shape": [128], "dtype": "float32"}, {"name": "batch_normalization_3/gamma", "shape": [128], "dtype": "float32"}, {"name": "batch_normalization_3/beta", "shape": [128], "dtype": "float32"}, {"name": "batch_normalization_3/moving_mean", "shape": [128], "dtype": "float32"}, {"name": "batch_normalization_3/moving_variance", "shape": [128], "dtype": "float32"}, {"name": "p_re_lu_3/alpha", "shape": [1, 1, 128], "dtype": "float32"}, {"name": "conv2d_5/kernel", "shape": [3, 3, 128, 128], "dtype": "float32"}, {"name": "conv2d_5/bias", "shape": [128], "dtype": "float32"}, {"name": "batch_normalization_4/gamma", "shape": [128], "dtype": "float32"}, {"name": "batch_normalization_4/beta", "shape": [128], "dtype": "float32"}, {"name": "batch_normalization_4/moving_mean", "shape": [128], "dtype": "float32"}, {"name": "batch_normalization_4/moving_variance", "shape": [128], "dtype": "float32"}, {"name": "p_re_lu_4/alpha", "shape": [1, 1, 128], "dtype": "float32"}, {"name": "conv2d_6/kernel", "shape": [3, 3, 128, 128], "dtype": "float32"}, {"name": "conv2d_6/bias", "shape": [128], "dtype": "float32"}, {"name": "conv2d_7/kernel", "shape": [2, 2, 128, 256], "dtype": "float32"}, {"name": "conv2d_7/bias", "shape": [256], "dtype": "float32"}, {"name": "batch_normalization_5/gamma", "shape": [256], "dtype": "float32"}, {"name": "batch_normalization_5/beta", "shape": [256], "dtype": "float32"}, {"name": "batch_normalization_5/moving_mean", "shape": [256], "dtype": "float32"}, {"name": "batch_normalization_5/moving_variance", "shape": [256], "dtype": "float32"}, {"name": "p_re_lu_5/alpha", "shape": [1, 1, 256], "dtype": "float32"}, {"name": "conv2d_8/kernel", "shape": [3, 3, 256, 256], "dtype": "float32"}, {"name": "conv2d_8/bias", "shape": [256], "dtype": "float32"}, {"name": "batch_normalization_6/gamma", "shape": [256], "dtype": "float32"}, {"name": "batch_normalization_6/beta", "shape": [256], "dtype": "float32"}, {"name": "batch_normalization_6/moving_mean", "shape": [256], "dtype": "float32"}, {"name": "batch_normalization_6/moving_variance", "shape": [256], "dtype": "float32"}, {"name": "p_re_lu_6/alpha", "shape": [1, 1, 256], "dtype": "float32"}, {"name": "conv2d_9/kernel", "shape": [3, 3, 256, 256], "dtype": "float32"}, {"name": "conv2d_9/bias", "shape": [256], "dtype": "float32"}, {"name": "conv2d_10/kernel", "shape": [2, 2, 256, 512], "dtype": "float32"}, {"name": "conv2d_10/bias", "shape": [512], "dtype": "float32"}, {"name": "batch_normalization_7/gamma", "shape": [512], "dtype": "float32"}, {"name": "batch_normalization_7/beta", "shape": [512], "dtype": "float32"}, {"name": "batch_normalization_7/moving_mean", "shape": [512], "dtype": "float32"}, {"name": "batch_normalization_7/moving_variance", "shape": [512], "dtype": "float32"}, {"name": "p_re_lu_7/alpha", "shape": [1, 1, 512], "dtype": "float32"}, {"name": "conv2d_11/kernel", "shape": [3, 3, 512, 512], "dtype": "float32"}, {"name": "conv2d_11/bias", "shape": [512], "dtype": "float32"}, {"name": "batch_normalization_8/gamma", "shape": [512], "dtype": "float32"}, {"name": "batch_normalization_8/beta", "shape": [512], "dtype": "float32"}, {"name": "batch_normalization_8/moving_mean", "shape": [512], "dtype": "float32"}, {"name": "batch_normalization_8/moving_variance", "shape": [512], "dtype": "float32"}, {"name": "p_re_lu_8/alpha", "shape": [1, 1, 512], "dtype": "float32"}, {"name": "conv2d_12/kernel", "shape": [3, 3, 512, 512], "dtype": "float32"}, {"name": "conv2d_12/bias", "shape": [512], "dtype": "float32"}, {"name": "conv2d_13/kernel", "shape": [2, 2, 512, 256], "dtype": "float32"}, {"name": "conv2d_13/bias", "shape": [256], "dtype": "float32"}, {"name": "batch_normalization_9/gamma", "shape": [512], "dtype": "float32"}, {"name": "batch_normalization_9/beta", "shape": [512], "dtype": "float32"}, {"name": "batch_normalization_9/moving_mean", "shape": [512], "dtype": "float32"}, {"name": "batch_normalization_9/moving_variance", "shape": [512], "dtype": "float32"}, {"name": "p_re_lu_9/alpha", "shape": [1, 1, 512], "dtype": "float32"}, {"name": "conv2d_14/kernel", "shape": [3, 3, 512, 256], "dtype": "float32"}, {"name": "conv2d_14/bias", "shape": [256], "dtype": "float32"}, {"name": "batch_normalization_10/gamma", "shape": [256], "dtype": "float32"}, {"name": "batch_normalization_10/beta", "shape": [256], "dtype": "float32"}, {"name": "batch_normalization_10/moving_mean", "shape": [256], "dtype": "float32"}, {"name": "batch_normalization_10/moving_variance", "shape": [256], "dtype": "float32"}, {"name": "p_re_lu_10/alpha", "shape": [1, 1, 256], "dtype": "float32"}, {"name": "conv2d_16/kernel", "shape": [1, 1, 512, 256], "dtype": "float32"}, {"name": "conv2d_15/kernel", "shape": [3, 3, 256, 256], "dtype": "float32"}, {"name": "conv2d_15/bias", "shape": [256], "dtype": "float32"}, {"name": "conv2d_17/kernel", "shape": [2, 2, 256, 128], "dtype": "float32"}, {"name": "conv2d_17/bias", "shape": [128], "dtype": "float32"}, {"name": "batch_normalization_11/gamma", "shape": [256], "dtype": "float32"}, {"name": "batch_normalization_11/beta", "shape": [256], "dtype": "float32"}, {"name": "batch_normalization_11/moving_mean", "shape": [256], "dtype": "float32"}, {"name": "batch_normalization_11/moving_variance", "shape": [256], "dtype": "float32"}, {"name": "p_re_lu_11/alpha", "shape": [1, 1, 256], "dtype": "float32"}, {"name": "conv2d_18/kernel", "shape": [3, 3, 256, 128], "dtype": "float32"}, {"name": "conv2d_18/bias", "shape": [128], "dtype": "float32"}, {"name": "batch_normalization_12/gamma", "shape": [128], "dtype": "float32"}, {"name": "batch_normalization_12/beta", "shape": [128], "dtype": "float32"}, {"name": "batch_normalization_12/moving_mean", "shape": [128], "dtype": "float32"}, {"name": "batch_normalization_12/moving_variance", "shape": [128], "dtype": "float32"}, {"name": "p_re_lu_12/alpha", "shape": [1, 1, 128], "dtype": "float32"}, {"name": "conv2d_20/kernel", "shape": [1, 1, 256, 128], "dtype": "float32"}, {"name": "conv2d_19/kernel", "shape": [3, 3, 128, 128], "dtype": "float32"}, {"name": "conv2d_19/bias", "shape": [128], "dtype": "float32"}, {"name": "conv2d_21/kernel", "shape": [2, 2, 128, 64], "dtype": "float32"}, {"name": "conv2d_21/bias", "shape": [64], "dtype": "float32"}, {"name": "batch_normalization_13/gamma", "shape": [128], "dtype": "float32"}, {"name": "batch_normalization_13/beta", "shape": [128], "dtype": "float32"}, {"name": "batch_normalization_13/moving_mean", "shape": [128], "dtype": "float32"}, {"name": "batch_normalization_13/moving_variance", "shape": [128], "dtype": "float32"}, {"name": "p_re_lu_13/alpha", "shape": [1, 1, 128], "dtype": "float32"}, {"name": "conv2d_22/kernel", "shape": [3, 3, 128, 64], "dtype": "float32"}, {"name": "conv2d_22/bias", "shape": [64], "dtype": "float32"}, {"name": "batch_normalization_14/gamma", "shape": [64], "dtype": "float32"}, {"name": "batch_normalization_14/beta", "shape": [64], "dtype": "float32"}, {"name": "batch_normalization_14/moving_mean", "shape": [64], "dtype": "float32"}, {"name": "batch_normalization_14/moving_variance", "shape": [64], "dtype": "float32"}, {"name": "p_re_lu_14/alpha", "shape": [1, 1, 64], "dtype": "float32"}, {"name": "conv2d_24/kernel", "shape": [1, 1, 128, 64], "dtype": "float32"}, {"name": "conv2d_23/kernel", "shape": [3, 3, 64, 64], "dtype": "float32"}, {"name": "conv2d_23/bias", "shape": [64], "dtype": "float32"}, {"name": "batch_normalization_15/gamma", "shape": [64], "dtype": "float32"}, {"name": "batch_normalization_15/beta", "shape": [64], "dtype": "float32"}, {"name": "batch_normalization_15/moving_mean", "shape": [64], "dtype": "float32"}, {"name": "batch_normalization_15/moving_variance", "shape": [64], "dtype": "float32"}, {"name": "p_re_lu_15/alpha", "shape": [1, 1, 64], "dtype": "float32"}, {"name": "conv2d_25/kernel", "shape": [1, 1, 64, 4], "dtype": "float32"}, {"name": "conv2d_25/bias", "shape": [4], "dtype": "float32"}]}]}